…
2022-04-01 22:56:47,117 - mmseg - INFO - initialize UPerHead with init_cfg {'type': 'Normal', 'std': 0.01, 'override': {'name': 'conv_seg'}}
2022-04-01 22:56:47,284 - mmseg - INFO - initialize FCNHead with init_cfg {'type': 'Normal', 'std': 0.01, 'override': {'name': 'conv_seg'}}
D:/Yang/Py/mmsegmentation/tools/train.py:198: UserWarning: SyncBN is only supported with DDP. To be compatible with DP, we convert SyncBN to BN. Please use dist_train.sh which can avoid this error.
  warnings.warn(
2022-04-01 22:56:47,289 - mmseg - INFO - EncoderDecoder(
  (backbone): SwinTransformer(
    (patch_embed): PatchEmbed(
      (adap_padding): AdaptivePadding()
      (projection): Conv2d(3, 96, kernel_size=(4, 4), stride=(4, 4))
      (norm): LayerNorm((96,), eps=1e-05, elementwise_affine=True)
    )
    (drop_after_pos): Dropout(p=0.0, inplace=False)
    (stages): ModuleList(
      (0): SwinBlockSequence(
        (blocks): ModuleList(
          (0): SwinBlock(
            (norm1): LayerNorm((96,), eps=1e-05, elementwise_affine=True)
            (attn): ShiftWindowMSA(
              (w_msa): WindowMSA(
                (qkv): Linear(in_features=96, out_features=288, bias=True)
                (attn_drop): Dropout(p=0.0, inplace=False)
                (proj): Linear(in_features=96, out_features=96, bias=True)
                (proj_drop): Dropout(p=0.0, inplace=False)
                (softmax): Softmax(dim=-1)
              )
              (drop): DropPath()
            )
            (norm2): LayerNorm((96,), eps=1e-05, elementwise_affine=True)
            (ffn): FFN(
              (activate): GELU()
              (layers): Sequential(
                (0): Sequential(
                  (0): Linear(in_features=96, out_features=384, bias=True)
                  (1): GELU()
                  (2): Dropout(p=0.0, inplace=False)
                )
                (1): Linear(in_features=384, out_features=96, bias=True)
                (2): Dropout(p=0.0, inplace=False)
              )
              (dropout_layer): DropPath()
            )
          )
          (1): SwinBlock(
            (norm1): LayerNorm((96,), eps=1e-05, elementwise_affine=True)
            (attn): ShiftWindowMSA(
              (w_msa): WindowMSA(
                (qkv): Linear(in_features=96, out_features=288, bias=True)
                (attn_drop): Dropout(p=0.0, inplace=False)
                (proj): Linear(in_features=96, out_features=96, bias=True)
                (proj_drop): Dropout(p=0.0, inplace=False)
                (softmax): Softmax(dim=-1)
              )
              (drop): DropPath()
            )
            (norm2): LayerNorm((96,), eps=1e-05, elementwise_affine=True)
            (ffn): FFN(
              (activate): GELU()
              (layers): Sequential(
                (0): Sequential(
                  (0): Linear(in_features=96, out_features=384, bias=True)
                  (1): GELU()
                  (2): Dropout(p=0.0, inplace=False)
                )
                (1): Linear(in_features=384, out_features=96, bias=True)
                (2): Dropout(p=0.0, inplace=False)
              )
              (dropout_layer): DropPath()
            )
          )
        )
        (downsample): PatchMerging(
          (adap_padding): AdaptivePadding()
          (sampler): Unfold(kernel_size=(2, 2), dilation=(1, 1), padding=(0, 0), stride=(2, 2))
          (norm): LayerNorm((384,), eps=1e-05, elementwise_affine=True)
          (reduction): Linear(in_features=384, out_features=192, bias=False)
        )
      )
      (1): SwinBlockSequence(
        (blocks): ModuleList(
          (0): SwinBlock(
            (norm1): LayerNorm((192,), eps=1e-05, elementwise_affine=True)
            (attn): ShiftWindowMSA(
              (w_msa): WindowMSA(
                (qkv): Linear(in_features=192, out_features=576, bias=True)
                (attn_drop): Dropout(p=0.0, inplace=False)
                (proj): Linear(in_features=192, out_features=192, bias=True)
                (proj_drop): Dropout(p=0.0, inplace=False)
                (softmax): Softmax(dim=-1)
              )
              (drop): DropPath()
            )
            (norm2): LayerNorm((192,), eps=1e-05, elementwise_affine=True)
            (ffn): FFN(
              (activate): GELU()
              (layers): Sequential(
                (0): Sequential(
                  (0): Linear(in_features=192, out_features=768, bias=True)
                  (1): GELU()
                  (2): Dropout(p=0.0, inplace=False)
                )
                (1): Linear(in_features=768, out_features=192, bias=True)
                (2): Dropout(p=0.0, inplace=False)
              )
              (dropout_layer): DropPath()
            )
          )
          (1): SwinBlock(
            (norm1): LayerNorm((192,), eps=1e-05, elementwise_affine=True)
            (attn): ShiftWindowMSA(
              (w_msa): WindowMSA(
                (qkv): Linear(in_features=192, out_features=576, bias=True)
                (attn_drop): Dropout(p=0.0, inplace=False)
                (proj): Linear(in_features=192, out_features=192, bias=True)
                (proj_drop): Dropout(p=0.0, inplace=False)
                (softmax): Softmax(dim=-1)
              )
              (drop): DropPath()
            )
            (norm2): LayerNorm((192,), eps=1e-05, elementwise_affine=True)
            (ffn): FFN(
              (activate): GELU()
              (layers): Sequential(
                (0): Sequential(
                  (0): Linear(in_features=192, out_features=768, bias=True)
                  (1): GELU()
                  (2): Dropout(p=0.0, inplace=False)
                )
                (1): Linear(in_features=768, out_features=192, bias=True)
                (2): Dropout(p=0.0, inplace=False)
              )
              (dropout_layer): DropPath()
            )
          )
        )
        (downsample): PatchMerging(
          (adap_padding): AdaptivePadding()
          (sampler): Unfold(kernel_size=(2, 2), dilation=(1, 1), padding=(0, 0), stride=(2, 2))
          (norm): LayerNorm((768,), eps=1e-05, elementwise_affine=True)
          (reduction): Linear(in_features=768, out_features=384, bias=False)
        )
      )
      (2): SwinBlockSequence(
        (blocks): ModuleList(
          (0): SwinBlock(
            (norm1): LayerNorm((384,), eps=1e-05, elementwise_affine=True)
            (attn): ShiftWindowMSA(
              (w_msa): WindowMSA(
                (qkv): Linear(in_features=384, out_features=1152, bias=True)
                (attn_drop): Dropout(p=0.0, inplace=False)
                (proj): Linear(in_features=384, out_features=384, bias=True)
                (proj_drop): Dropout(p=0.0, inplace=False)
                (softmax): Softmax(dim=-1)
              )
              (drop): DropPath()
            )
            (norm2): LayerNorm((384,), eps=1e-05, elementwise_affine=True)
            (ffn): FFN(
              (activate): GELU()
              (layers): Sequential(
                (0): Sequential(
                  (0): Linear(in_features=384, out_features=1536, bias=True)
                  (1): GELU()
                  (2): Dropout(p=0.0, inplace=False)
                )
                (1): Linear(in_features=1536, out_features=384, bias=True)
                (2): Dropout(p=0.0, inplace=False)
              )
              (dropout_layer): DropPath()
            )
          )
          (1): SwinBlock(
            (norm1): LayerNorm((384,), eps=1e-05, elementwise_affine=True)
            (attn): ShiftWindowMSA(
              (w_msa): WindowMSA(
                (qkv): Linear(in_features=384, out_features=1152, bias=True)
                (attn_drop): Dropout(p=0.0, inplace=False)
                (proj): Linear(in_features=384, out_features=384, bias=True)
                (proj_drop): Dropout(p=0.0, inplace=False)
                (softmax): Softmax(dim=-1)
              )
              (drop): DropPath()
            )
            (norm2): LayerNorm((384,), eps=1e-05, elementwise_affine=True)
            (ffn): FFN(
              (activate): GELU()
              (layers): Sequential(
                (0): Sequential(
                  (0): Linear(in_features=384, out_features=1536, bias=True)
                  (1): GELU()
                  (2): Dropout(p=0.0, inplace=False)
                )
                (1): Linear(in_features=1536, out_features=384, bias=True)
                (2): Dropout(p=0.0, inplace=False)
              )
              (dropout_layer): DropPath()
            )
          )
          (2): SwinBlock(
            (norm1): LayerNorm((384,), eps=1e-05, elementwise_affine=True)
            (attn): ShiftWindowMSA(
              (w_msa): WindowMSA(
                (qkv): Linear(in_features=384, out_features=1152, bias=True)
                (attn_drop): Dropout(p=0.0, inplace=False)
                (proj): Linear(in_features=384, out_features=384, bias=True)
                (proj_drop): Dropout(p=0.0, inplace=False)
                (softmax): Softmax(dim=-1)
              )
              (drop): DropPath()
            )
            (norm2): LayerNorm((384,), eps=1e-05, elementwise_affine=True)
            (ffn): FFN(
              (activate): GELU()
              (layers): Sequential(
                (0): Sequential(
                  (0): Linear(in_features=384, out_features=1536, bias=True)
                  (1): GELU()
                  (2): Dropout(p=0.0, inplace=False)
                )
                (1): Linear(in_features=1536, out_features=384, bias=True)
                (2): Dropout(p=0.0, inplace=False)
              )
              (dropout_layer): DropPath()
            )
          )
          (3): SwinBlock(
            (norm1): LayerNorm((384,), eps=1e-05, elementwise_affine=True)
            (attn): ShiftWindowMSA(
              (w_msa): WindowMSA(
                (qkv): Linear(in_features=384, out_features=1152, bias=True)
                (attn_drop): Dropout(p=0.0, inplace=False)
                (proj): Linear(in_features=384, out_features=384, bias=True)
                (proj_drop): Dropout(p=0.0, inplace=False)
                (softmax): Softmax(dim=-1)
              )
              (drop): DropPath()
            )
            (norm2): LayerNorm((384,), eps=1e-05, elementwise_affine=True)
            (ffn): FFN(
              (activate): GELU()
              (layers): Sequential(
                (0): Sequential(
                  (0): Linear(in_features=384, out_features=1536, bias=True)
                  (1): GELU()
                  (2): Dropout(p=0.0, inplace=False)
                )
                (1): Linear(in_features=1536, out_features=384, bias=True)
                (2): Dropout(p=0.0, inplace=False)
              )
              (dropout_layer): DropPath()
            )
          )
          (4): SwinBlock(
            (norm1): LayerNorm((384,), eps=1e-05, elementwise_affine=True)
            (attn): ShiftWindowMSA(
              (w_msa): WindowMSA(
                (qkv): Linear(in_features=384, out_features=1152, bias=True)
                (attn_drop): Dropout(p=0.0, inplace=False)
                (proj): Linear(in_features=384, out_features=384, bias=True)
                (proj_drop): Dropout(p=0.0, inplace=False)
                (softmax): Softmax(dim=-1)
              )
              (drop): DropPath()
            )
            (norm2): LayerNorm((384,), eps=1e-05, elementwise_affine=True)
            (ffn): FFN(
              (activate): GELU()
              (layers): Sequential(
                (0): Sequential(
                  (0): Linear(in_features=384, out_features=1536, bias=True)
                  (1): GELU()
                  (2): Dropout(p=0.0, inplace=False)
                )
                (1): Linear(in_features=1536, out_features=384, bias=True)
                (2): Dropout(p=0.0, inplace=False)
              )
              (dropout_layer): DropPath()
            )
          )
          (5): SwinBlock(
            (norm1): LayerNorm((384,), eps=1e-05, elementwise_affine=True)
            (attn): ShiftWindowMSA(
              (w_msa): WindowMSA(
                (qkv): Linear(in_features=384, out_features=1152, bias=True)
                (attn_drop): Dropout(p=0.0, inplace=False)
                (proj): Linear(in_features=384, out_features=384, bias=True)
                (proj_drop): Dropout(p=0.0, inplace=False)
                (softmax): Softmax(dim=-1)
              )
              (drop): DropPath()
            )
            (norm2): LayerNorm((384,), eps=1e-05, elementwise_affine=True)
            (ffn): FFN(
              (activate): GELU()
              (layers): Sequential(
                (0): Sequential(
                  (0): Linear(in_features=384, out_features=1536, bias=True)
                  (1): GELU()
                  (2): Dropout(p=0.0, inplace=False)
                )
                (1): Linear(in_features=1536, out_features=384, bias=True)
                (2): Dropout(p=0.0, inplace=False)
              )
              (dropout_layer): DropPath()
            )
          )
        )
        (downsample): PatchMerging(
          (adap_padding): AdaptivePadding()
          (sampler): Unfold(kernel_size=(2, 2), dilation=(1, 1), padding=(0, 0), stride=(2, 2))
          (norm): LayerNorm((1536,), eps=1e-05, elementwise_affine=True)
          (reduction): Linear(in_features=1536, out_features=768, bias=False)
        )
      )
      (3): SwinBlockSequence(
        (blocks): ModuleList(
          (0): SwinBlock(
            (norm1): LayerNorm((768,), eps=1e-05, elementwise_affine=True)
            (attn): ShiftWindowMSA(
              (w_msa): WindowMSA(
                (qkv): Linear(in_features=768, out_features=2304, bias=True)
                (attn_drop): Dropout(p=0.0, inplace=False)
                (proj): Linear(in_features=768, out_features=768, bias=True)
                (proj_drop): Dropout(p=0.0, inplace=False)
                (softmax): Softmax(dim=-1)
              )
              (drop): DropPath()
            )
            (norm2): LayerNorm((768,), eps=1e-05, elementwise_affine=True)
            (ffn): FFN(
              (activate): GELU()
              (layers): Sequential(
                (0): Sequential(
                  (0): Linear(in_features=768, out_features=3072, bias=True)
                  (1): GELU()
                  (2): Dropout(p=0.0, inplace=False)
                )
                (1): Linear(in_features=3072, out_features=768, bias=True)
                (2): Dropout(p=0.0, inplace=False)
              )
              (dropout_layer): DropPath()
            )
          )
          (1): SwinBlock(
            (norm1): LayerNorm((768,), eps=1e-05, elementwise_affine=True)
            (attn): ShiftWindowMSA(
              (w_msa): WindowMSA(
                (qkv): Linear(in_features=768, out_features=2304, bias=True)
                (attn_drop): Dropout(p=0.0, inplace=False)
                (proj): Linear(in_features=768, out_features=768, bias=True)
                (proj_drop): Dropout(p=0.0, inplace=False)
                (softmax): Softmax(dim=-1)
              )
              (drop): DropPath()
            )
            (norm2): LayerNorm((768,), eps=1e-05, elementwise_affine=True)
            (ffn): FFN(
              (activate): GELU()
              (layers): Sequential(
                (0): Sequential(
                  (0): Linear(in_features=768, out_features=3072, bias=True)
                  (1): GELU()
                  (2): Dropout(p=0.0, inplace=False)
                )
                (1): Linear(in_features=3072, out_features=768, bias=True)
                (2): Dropout(p=0.0, inplace=False)
              )
              (dropout_layer): DropPath()
            )
          )
        )
      )
    )
    (norm0): LayerNorm((96,), eps=1e-05, elementwise_affine=True)
    (norm1): LayerNorm((192,), eps=1e-05, elementwise_affine=True)
    (norm2): LayerNorm((384,), eps=1e-05, elementwise_affine=True)
    (norm3): LayerNorm((768,), eps=1e-05, elementwise_affine=True)
  )
  (decode_head): UPerHead(
    input_transform=multiple_select, ignore_index=255, align_corners=False
    (loss_decode): CrossEntropyLoss()
    (conv_seg): Conv2d(512, 16, kernel_size=(1, 1), stride=(1, 1))
    (dropout): Dropout2d(p=0.1, inplace=False)
    (psp_modules): PPM(
      (0): Sequential(
        (0): AdaptiveAvgPool2d(output_size=1)
        (1): ConvModule(
          (conv): Conv2d(768, 512, kernel_size=(1, 1), stride=(1, 1), bias=False)
          (bn): BatchNorm2d(512, eps=1e-05, momentum=0.1, affine=True, track_running_stats=True)
          (activate): ReLU(inplace=True)
        )
      )
      (1): Sequential(
        (0): AdaptiveAvgPool2d(output_size=2)
        (1): ConvModule(
          (conv): Conv2d(768, 512, kernel_size=(1, 1), stride=(1, 1), bias=False)
          (bn): BatchNorm2d(512, eps=1e-05, momentum=0.1, affine=True, track_running_stats=True)
          (activate): ReLU(inplace=True)
        )
      )
      (2): Sequential(
        (0): AdaptiveAvgPool2d(output_size=3)
        (1): ConvModule(
          (conv): Conv2d(768, 512, kernel_size=(1, 1), stride=(1, 1), bias=False)
          (bn): BatchNorm2d(512, eps=1e-05, momentum=0.1, affine=True, track_running_stats=True)
          (activate): ReLU(inplace=True)
        )
      )
      (3): Sequential(
        (0): AdaptiveAvgPool2d(output_size=6)
        (1): ConvModule(
          (conv): Conv2d(768, 512, kernel_size=(1, 1), stride=(1, 1), bias=False)
          (bn): BatchNorm2d(512, eps=1e-05, momentum=0.1, affine=True, track_running_stats=True)
          (activate): ReLU(inplace=True)
        )
      )
    )
    (bottleneck): ConvModule(
      (conv): Conv2d(2816, 512, kernel_size=(3, 3), stride=(1, 1), padding=(1, 1), bias=False)
      (bn): BatchNorm2d(512, eps=1e-05, momentum=0.1, affine=True, track_running_stats=True)
      (activate): ReLU(inplace=True)
    )
    (lateral_convs): ModuleList(
      (0): ConvModule(
        (conv): Conv2d(96, 512, kernel_size=(1, 1), stride=(1, 1), bias=False)
        (bn): BatchNorm2d(512, eps=1e-05, momentum=0.1, affine=True, track_running_stats=True)
        (activate): ReLU()
      )
      (1): ConvModule(
        (conv): Conv2d(192, 512, kernel_size=(1, 1), stride=(1, 1), bias=False)
        (bn): BatchNorm2d(512, eps=1e-05, momentum=0.1, affine=True, track_running_stats=True)
        (activate): ReLU()
      )
      (2): ConvModule(
        (conv): Conv2d(384, 512, kernel_size=(1, 1), stride=(1, 1), bias=False)
        (bn): BatchNorm2d(512, eps=1e-05, momentum=0.1, affine=True, track_running_stats=True)
        (activate): ReLU()
      )
    )
    (fpn_convs): ModuleList(
      (0): ConvModule(
        (conv): Conv2d(512, 512, kernel_size=(3, 3), stride=(1, 1), padding=(1, 1), bias=False)
        (bn): BatchNorm2d(512, eps=1e-05, momentum=0.1, affine=True, track_running_stats=True)
        (activate): ReLU()
      )
      (1): ConvModule(
        (conv): Conv2d(512, 512, kernel_size=(3, 3), stride=(1, 1), padding=(1, 1), bias=False)
        (bn): BatchNorm2d(512, eps=1e-05, momentum=0.1, affine=True, track_running_stats=True)
        (activate): ReLU()
      )
      (2): ConvModule(
        (conv): Conv2d(512, 512, kernel_size=(3, 3), stride=(1, 1), padding=(1, 1), bias=False)
        (bn): BatchNorm2d(512, eps=1e-05, momentum=0.1, affine=True, track_running_stats=True)
        (activate): ReLU()
      )
    )
    (fpn_bottleneck): ConvModule(
      (conv): Conv2d(2048, 512, kernel_size=(3, 3), stride=(1, 1), padding=(1, 1), bias=False)
      (bn): BatchNorm2d(512, eps=1e-05, momentum=0.1, affine=True, track_running_stats=True)
      (activate): ReLU(inplace=True)
    )
  )
  init_cfg={'type': 'Normal', 'std': 0.01, 'override': {'name': 'conv_seg'}}
  (auxiliary_head): FCNHead(
    input_transform=None, ignore_index=255, align_corners=False
    (loss_decode): CrossEntropyLoss()
    (conv_seg): Conv2d(256, 16, kernel_size=(1, 1), stride=(1, 1))
    (dropout): Dropout2d(p=0.1, inplace=False)
    (convs): Sequential(
      (0): ConvModule(
        (conv): Conv2d(384, 256, kernel_size=(3, 3), stride=(1, 1), padding=(1, 1), bias=False)
        (bn): BatchNorm2d(256, eps=1e-05, momentum=0.1, affine=True, track_running_stats=True)
        (activate): ReLU(inplace=True)
      )
    )
  )
  init_cfg={'type': 'Normal', 'std': 0.01, 'override': {'name': 'conv_seg'}}
)
2022-04-01 22:56:48,345 - mmseg - INFO - Loaded 33978 images
2022-04-01 22:56:49,349 - mmseg - INFO - Loaded 11644 images
2022-04-01 22:56:49,350 - mmseg - INFO - load checkpoint from local path: D:\Yang\Py\mmsegmentation\checkpoints\iSAID\iter_32000.pth
…
